package/tensorflow/mle-player/tf-exein/files/model-13107.tflite (tflite, 127564 bytes, 14 tensors)

sequential_3/conv1d_12/conv1d/ExpandDims_1 f4 [32, 1, 3, 17]
000000 13 25 f5 3c 37 ca c2 3c 82 51 83 3e eb fb 44 3d
       0.029924905 0.023778064 0.25648123 0.04809181
000010 b8 bc e5 3c 7b ee 1e be a7 a5 3a be f5 07 06 3e
       0.02804409 -0.1552066 -0.18227254 0.13088973
000020 d4 c5 ab bc b6 57 26 bd 2e 96 da 3d 59 49 a8 bd
       -0.020968355 -0.04061099 0.10673176 -0.08217115
000030 f7 75 a4 be b8 87 00 3e cd c7 0c 3d 56 b2 94 3e
       -0.3212125 0.12551773 0.034370232 0.2904231
000040 54 ac 37 3e 1c f3 c3 bc a3 17 e2 3d 4c 93 09 be
       0.17936832 -0.023919635 0.110396646 -0.13435096
000050 f8 bb ff 3d c5 65 e3 bc 28 2b 87 3c e8 73 33 3e
       0.12487024 -0.027758488 0.01650007 0.17524683
000060 ba 4f 4e 3c 32 34 1b 3c 1e 29 29 3d 50 bc 06 be
       0.0125922505 0.009472894 0.041298978 -0.13157773
000070 8c 53 8a 3e b1 04 70 3d 3f 61 39 be 1d d6 49 3e
       0.27016866 0.058598224 -0.18103503 0.19710584
000080 df a5 a3 3e 2c 90 a1 3d f8 7b 94 3e e6 d7 85 be
       0.31962487 0.07888827 0.2900083 -0.2614128
000090 73 b8 a7 3d ca 1c 88 be d4 ff 01 3e 81 26 6e 3e
       0.08189478 -0.26584464 0.12695247 0.23256876
0000a0 66 45 43 bd 8a 5d 78 3d 4c 57 4b be 94 ba 48 be
       -0.047673605 0.06063608 -0.1985752 -0.19602424
0000b0 cd ae 35 be e3 25 a8 bd 14 04 41 be ec 31 db bd
       -0.17742462 -0.08210351 -0.18849212 -0.10702881
0000c0 13 11 2d 3e b2 6c 84 3e 65 f6 c4 bd 5d f9 9a bc
       0.16901045 0.25864178 -0.096173085 -0.018917734
0000d0 84 0b f0 3b c2 8b c0 3d 40 c9 83 bd 05 96 22 be
       0.0073255915 0.09401657 -0.0643487 -0.1587754
0000e0 08 53 c2 3d ed f2 8a bd 56 76 9a 3c 99 d5 85 3c
       0.09488493 -0.06784616 0.018855255 0.016337203
0000f0 f5 32 6d 3d 62 1e 4f be 8f d4 b1 3e 7a ec 78 3e
       0.057909925 -0.20226434 0.34732482 0.24308959
000100 57 b8 8a bd 8b 44 27 bc f9 ce f8 bd 6c 4e f0 3d
       -0.06773441 -0.010209213 -0.12148852 0.11733708
000110 36 a2 fb 3c 44 e5 f2 3d eb 46 85 3e 5e d2 85 3a
       0.030716997 0.11860135 0.2603067 0.0010209789
000120 10 21 95 3c 60 5f 4d 3b 43 b9 a6 3e 0c f4 31 be
       0.018204242 0.0031337366 0.32563218 -0.17378253
000130 0a fb 98 3e 23 f0 27 3e f9 61 61 be 33 b8 cf b9
       0.29879028 0.16400199 -0.2201003 -0.00039619356
000140 d1 1b 47 bd 5e 0e 13 3e 7c 75 05 bd 71 e1 be bd
       -0.048610512 0.1436095 -0.032582745 -0.09320343
000150 da ea 22 3e bb af e7 3d ab f5 54 3d 41 6a 88 3e
       0.15909901 0.11312815 0.0519921 0.26643565
000160 54 a5 30 3d 7e 06 83 be b8 5f 3e bd 00 69 a9 bc
       0.04312642 -0.2559089 -0.046478003 -0.02067995
000170 3f 5c 10 be 20 1d fa 3d 87 52 28 be 9a 8f 6a bd
       -0.14097689 0.122125864 -0.16437732 -0.057265855
000180 1a be 45 be b6 56 3e 3e f9 03 61 3e 6a 5c 52 3c
       -0.19310799 0.18587765 0.21974172 0.012839416
000190 ea a0 ad 3d 6e 02 fc bd f2 b9 88 3e 83 60 62 bc
       0.084779575 -0.12305151 0.26704365 -0.0138169555
0001a0 be 19 5f 3e 94 de 25 3d ae dd 0a 3d 80 60 84 be
       0.21787164 0.04049547 0.033902816 -0.25854874
0001b0 2c 89 13 3e 95 b1 a3 3d dc f6 50 bd 4a 3a 83 3e
       0.14407796 0.079928555 -0.051016673 0.2563041
0001c0 51 7b 2a bd c3 fb 41 be d2 eb 57 3e 0d d0 4a 3d
       -0.04162151 -0.18943696 0.21086052 0.04951482
0001d0 e7 9b 58 bd 13 19 80 be f6 c9 31 3e 4f bc 10 be
       -0.052883055 -0.2501913 0.17362198 -0.14134334
0001e0 a9 3a f4 3d b4 e5 e3 bd 40 fa 48 3e 0c 08 12 3d
       0.11925251 -0.11127797 0.19626713 0.035652205
0001f0 e3 6b ca 3d 9d 72 7c bd df 9d b7 3e 21 52 4f be
       0.09883859 -0.06163274 0.35862634 -0.20246173
000200 d8 d8 2c be 2e dd bc be 5d bb 07 bd a7 0d 89 3d
       -0.16879594 -0.36887497 -0.033137668 0.06692057
000210 d4 c9 8c bd bd f9 36 3d f4 a3 1f 3e c4 75 84 3d
       -0.06874433 0.044671763 0.15589887 0.064677745
000220 d6 5c 9b be f8 c5 7b 3d 43 62 98 3e 23 d6 9c be
       -0.30344266 0.061468095 0.29762468 -0.30632123
000230 ac ba b9 be 0d 58 6c 3d 8b af fb 3e 2f f4 da bd
       -0.36275232 0.05770116 0.49157366 -0.106911056
000240 7f 24 bf 3d b8 2f 94 bd d7 38 de be 55 76 9e be
       0.09333133 -0.07235664 -0.4340274 -0.30949655
000250 10 df 92 3e c7 82 30 be b7 49 80 3b 9f 89 21 3c
       0.28685808 -0.17237388 0.0039150375 0.009859472
000260 d8 04 09 bd de 26 87 bd 27 91 bc 3b 19 2a 40 bd
       -0.033451885 -0.0659921 0.005754608 -0.046915147
000270 36 6b 6a bd 18 22 6a 3e 1e 24 a4 be 37 14 4a be
       -0.05723115 0.22864568 -0.32058805 -0.19734274
000280 1e fd 6a 3e 1c e3 d7 3a 48 82 3f 3e 5d f8 db 3d
       0.22948119 0.0016470882 0.18702042 0.10740731
000290 2b fa ba be 3a 8b 1a 3f d4 8f 27 ba 4a 20 a2 be
       -0.36518988 0.6036869 -0.00063919765 -0.3166526
0002a0 a5 de 0b be 54 c4 17 bd ae f1 02 bd 8e d5 2a be
       -0.13659151 -0.037052467 -0.031968765 -0.16683027
0002b0 ea 46 6f 3d 32 d2 67 3e 29 73 5b 3e 43 92 2e 3c
       0.05841724 0.22638777 0.21430649 0.010654989
0002c0 05 9e 10 3e d7 19 88 3e 05 d5 c4 bd 1a 6b e6 bb
       0.1412278 0.26582214 -0.09610943 -0.0070318105
0002d0 61 97 37 be fa 9c 48 bc ed a9 9e be 9e ab 87 be
       -0.1792884 -0.012244457 -0.30989018 -0.2649812
0002e0 e4 f4 20 bd c9 ad c3 3d f8 f2 18 3e 63 f3 e0 bd
       -0.039296046 0.09554631 0.14936435 -0.10983922
0002f0 63 4e 2b bd 32 2b 9d 3c 9c 80 c8 bd 4c f3 8b 3e
       -0.041822802 0.019185636 -0.09790155 0.27334058
000300 34 99 2e 3e be 25 19 bd 36 e2 ff bc 6c 19 90 be
       0.1705063 -0.03738951 -0.031235795 -0.28144395
000310 8a 9c b9 3d 05 82 8b be fb d5 47 3e 0e 07 8d 3e
       0.090630606 -0.27247635 0.19515221 0.27544445
000320 9e a8 b6 bd 32 4a 7d bc c8 a4 88 bc 92 c4 0d be
       -0.0891888 -0.015459584 -0.016680136 -0.13844517
000330 76 15 3d be eb a8 22 3e 1b 3e 84 3e cb 16 11 3e
       -0.18465218 0.1588475 0.25828633 0.14168851
000340 ad fb e1 bd 41 c3 95 3e a6 0a 8a 3e 14 fe f2 3d
       -0.110343315 0.2925053 0.2696125 0.11864868
000350 a1 2f 24 be 6e 06 04 3e 45 ee 08 be 9e b9 4a 3d
       -0.16033794 0.12893078 -0.13372143 0.049493425
000360 a0 fb 6c be b6 2e b1 bd 25 f6 23 3d d0 97 1d be
       -0.23142862 -0.086514875 0.040029664 -0.15389943
000370 a8 60 b1 3d f2 5f 9d bd 6a 99 59 be 5b 05 59 3d
       0.08661014 -0.07684316 -0.21249929 0.052983623
000380 12 be b3 3d c7 3e da 3c 4a 11 39 be b9 25 8c 3e
       0.087764874 0.026641263 -0.18073002 0.2737253
000390 d5 f1 6b be 2d a9 1e 3d 15 6c 95 be 29 1a 54 3e
       -0.2304147 0.038735557 -0.29184023 0.20713104
0003a0 24 a0 92 39 3b 25 c4 3e 76 64 b2 3d 9a d7 b4 bd
       0.00027966604 0.38309655 0.08710568 -0.08830185
0003b0 2e 3a f6 bb 50 18 c4 bd 32 86 89 3d 76 59 97 be
       -0.00751426 -0.0957495 0.06715049 -0.2956044
0003c0 42 c8 1a bd 05 1b db be 77 8d 6c be 05 4e 3a be
       -0.037788637 -0.42794052 -0.2310084 -0.18193825
0003d0 35 f0 e3 3d 4e da a7 be 8a 70 5b 3e 6e 0a 77 be
       0.111298 -0.3278374 0.21429649 -0.24125072
0003e0 8c ab 5c be 73 4b 5f be d5 cd c7 be 46 10 74 bd
       -0.21549815 -0.21806125 -0.39024225 -0.059585832
0003f0 c2 d0 76 be 57 c8 6a bd 9c 1b f8 3d f7 88 49 be
       -0.24103072 -0.057319965 0.12114641 -0.19681154

sequential_3/conv1d_12/conv1d_bias f4 [32]
000000 81 3b ca 3c c0 77 21 3d 36 60 3e 3d fb cf db 3c
       0.024686577 0.039420843 0.046478473 0.026832571
000010 09 e9 c8 3d 6b be e9 bb 07 60 b1 3d 96 f6 d2 3c
       0.09810073 -0.0071332953 0.08660894 0.025752347
000020 92 e9 6e 3c 2c a0 62 bb 1e fb 73 3b 55 1c 17 bc
       0.014582055 -0.0034580333 0.0037228535 -0.0092230635
000030 3d 3d 65 3d 9e f9 ec bc 9e 4f 2d 3d ff ee 1a 3d
       0.055966605 -0.02892762 0.042312257 0.03782558
000040 d3 e6 60 3c 37 c7 a3 3c 33 cf cd 3c 49 39 af 3d
       0.013726908 0.019992454 0.025123214 0.08555848
000050 23 95 13 3c 55 54 00 3d 37 fb ba 3d ef 36 32 3d
       0.009007725 0.031330425 0.09129947 0.04350942
000060 4d 8b db 3c 66 f3 4c 3d 84 c4 ab 3d d9 7e a8 3d
       0.026799822 0.05003681 0.08387092 0.08227319
000070 21 9a 95 ba 9b d6 5f 3d d9 8f 90 3b 9e 01 12 3d
       -0.0011413732 0.054648023 0.004411679 0.035646074

sequential_3/conv1d_13/conv1d/ExpandDims_1 f4 [32, 1, 3, 32]
000000 18 ba 59 3e 6a a4 27 be ab c0 25 be 54 dd 76 3e
       0.21262395 -0.16371313 -0.16186778 0.24107867
000010 14 68 16 bd e4 ca 21 3e 48 6a a3 3d 8b 29 1b be
       -0.03672035 0.15800053 0.07979256 -0.15152566
000020 d4 b0 fb bc ea c7 b4 3d c0 dd 9c bd 79 6b fb bd
       -0.030723967 0.08827193 -0.07659483 -0.12276358
000030 d5 33 48 be d7 d9 79 3d 50 1d d8 bc 65 25 ad 3d
       -0.19551022 0.060998764 -0.026381165 0.08454398
000040 43 25 0e bb 92 28 82 bc 54 35 9c 3d e8 fe b7 bc
       -0.002168969 -0.015888486 0.07627359 -0.022460416
000050 db ec 2b 3e 52 83 22 3d 08 16 15 3e 86 cf e6 bd
       0.16789572 0.039676018 0.14559186 -0.11270051
000060 95 fe 26 3e df 09 c0 bd be 5b 2f be 28 27 b4 bd
       0.16308053 -0.09376883 -0.1712484 -0.08796531
000070 fe 64 7d bd ba 09 30 be b3 e6 0b 3e f9 16 12 3d
       -0.06186389 -0.1719121 0.13662224 0.03566644
000080 d0 94 dd 3d 72 8d 17 3c 26 c3 8e 3c c2 c4 2c 3e
       0.10819399 0.009250032 0.017427038 0.16871932
000090 ba 3a 86 be 2b 0c d1 bd 9c ad b0 3d 59 9d 1c be
       -0.2621668 -0.10207399 0.08626863 -0.15294398
0000a0 8f 92 0b be 45 15 01 3e 34 7c 94 bd e9 91 2c be
       -0.13630126 0.1260577 -0.07250252 -0.16852535
0000b0 2b 44 af bd ba 9d 4a 3d d5 e7 be 3c b0 12 59 bd
       -0.08557924 0.049466826 0.023303906 -0.052996337
0000c0 39 04 26 bb 9e cd b6 bc 90 b3 70 3c 96 f8 da bc
       -0.0025332107 -0.022314843 0.014691249 -0.026729863
0000d0 6a 0e 1f bd 38 ae 7e 3d e2 8c 01 3e 9f 53 c7 be
       -0.038832106 0.062177867 0.12651399 -0.38930985
0000e0 75 45 d6 3d bf a6 ac bd 48 e6 86 be 3d 67 55 bd
       0.104624666 -0.08430242 -0.26347566 -0.05210041
0000f0 01 2e e2 3c b5 21 b1 3d 37 81 9b bd e5 d3 a1 3d
       0.027609827 0.08649007 -0.07593005 0.07901744
000100 af 81 4c 3e 81 7e e5 bc 97 53 39 be 7e a6 d6 bd
       0.19971345 -0.028014423 -0.18098293 -0.104809746
000110 79 36 ac 3e 15 4a 28 bd 51 11 db 3d 8c a2 33 be
       0.3363531 -0.041086275 0.10696662 -0.17542475
000120 0f c1 9f 3c 7c fa 88 3e 65 21 73 3d f9 b1 8f be
       0.019501237 0.26753604 0.05935802 -0.2806547
000130 b3 cd 45 3e e3 f5 6c be 5e 12 92 bd 93 41 9f 3d
       0.1931675 -0.23140673 -0.071324095 0.07776179
000140 af b6 48 b9 f2 a7 f3 bd 48 6e 4e be e3 5b 4b be
       -0.00019141541 -0.118972674 -0.20159256 -0.19859271
000150 54 c2 39 3e c3 11 55 be 3a a4 85 bd f2 d2 4c be
       0.18140537 -0.20807557 -0.06525464 -0.20002344
000160 30 d0 80 3e b0 e6 69 be f2 5f 56 be 59 c1 b3 3d
       0.25158834 -0.22841907 -0.20935038 0.087771125
000170 f1 42 e6 bd 4b 1f 92 be 53 5f 7c be b9 2c d5 bc
       -0.11243237 -0.285395 -0.24645738 -0.026022302
000180 83 ef 90 bd 84 ea c0 bd 30 9c ef bd 49 d4 61 bc
       -0.07076933 -0.0941973 -0.11699712 -0.013783523
000190 93 f3 b7 bc 29 4f 0e bd 60 8b 4d 3e be e6 0d be
       -0.022455012 -0.03474346 0.20072699 -0.13857552
0001a0 a5 2d c4 3d 39 2e 35 3d 01 cb 58 be dc 07 c7 bc
       0.095790185 0.044233534 -0.2117119 -0.02429574
0001b0 2b 67 7a be 63 b7 8f 3d 9b f5 83 bc 3b 84 b9 3c
       -0.24453418 0.070174 -0.016108325 0.02264606
0001c0 0e 5b fa bd 33 ad 08 3e e8 46 ab 3d 08 8e 3b be
       -0.122243986 0.1334732 0.08363134 -0.183159
0001d0 d2 8e c1 3d 84 8c 73 3e 4e 79 a4 3e e6 48 b5 3d
       0.09451069 0.23784071 0.32123798 0.08851795
0001e0 5e 8e 7a bd 88 fa 35 3e d9 44 3f be a5 be 15 be
       -0.06117093 0.17771351 -0.18678607 -0.14623506
0001f0 37 17 4d bd d0 c5 1e 3e ac 6a c3 b8 ab d0 2f 3d
       -0.050070968 0.15505147 -9.318194e-05 0.04292361
000200 d2 7c 28 3e 20 cf 8b bc b8 9e 9d be 46 20 dd bd
       0.16453865 -0.017066538 -0.30785155 -0.10797171
000210 a6 ca 27 be 90 15 ae 3d e7 89 d0 bd 81 55 2a 3d
       -0.16385898 0.085002065 -0.10182553 0.04158545
000220 fe 9f 56 be a1 56 4f 3e 26 9d 0f 3e 44 79 72 3e
       -0.2095947 0.2024789 0.14024791 0.23679072
000230 a8 57 4a 3e 3f 82 9f 3d d2 b9 2e be 7f f1 85 be
       0.1976 0.07788514 -0.17063072 -0.2616081
000240 cd 21 cc bd 99 d7 70 3e 7a 46 44 bd 59 b8 6b 3d
       -0.099673845 0.23519744 -0.047918774 0.057548855
000250 15 f0 01 3e e7 ca 5d bd 21 3e 93 bd df 98 9c 3b
       0.1268924 -0.05414858 -0.071895845 0.004778966
000260 aa 4a 7b 3e e0 72 5f 3c e2 f7 bf 3c 58 5d 90 be
       0.24540201 0.013638228 0.02343363 -0.28196216
000270 15 54 fb bd b9 e6 74 be 88 68 f5 3c 46 16 7f 3d
       -0.12271897 -0.23916139 0.029957071 0.0622771
000280 86 d9 f9 be 76 f9 54 bd 5f 73 c7 bd 0d 40 90 3e
       -0.4879877 -0.051995717 -0.09738802 0.28173867
000290 2d 8d 72 be 1a 3c 88 3d d9 7f a8 3e 4d f7 11 3d
       -0.23686667 0.066520885 0.3291004 0.035636235
0002a0 68 b1 28 be 50 b0 05 3e 08 e7 c6 be b1 b1 7c be
       -0.16473925 0.13055539 -0.38848138 -0.24677159
0002b0 f8 bc 3b 3d fc a8 8a be 00 90 29 3e b8 53 dc 3d
       0.04583451 -0.2708205 0.16558838 0.107581556
0002c0 92 c8 6a bd be 04 4c be 8a 4c 09 bd e3 fc 9f be
       -0.057320185 -0.19923684 -0.03352026 -0.31247625
0002d0 e4 bb 2a be cd e1 7f 3e e0 e1 3a 3d 45 6c 42 be
       -0.16673237 0.2498848 0.045625567 -0.18986614
0002e0 82 c2 09 be 9d cc 8c be 22 f0 42 be e0 e6 5d 3e
       -0.13453105 -0.27499858 -0.19036916 0.21670103
0002f0 eb a4 ec bd 69 3b 90 be 8b 38 b6 be 59 2a d4 3d
       -0.11554893 -0.28170326 -0.35590014 0.1035964
000300 5b 51 41 bd d5 c7 0f 3c 9d f3 1a be ed 05 4c 3e
       -0.047196727 0.008775671 -0.15131994 0.19924136
000310 96 d0 75 be f9 8b 0a 3d bd 17 1d 3e b4 05 4b bd
       -0.2400535 0.033824895 0.15341087 -0.049565986
000320 b4 1e 1d be 58 0c 5b 3c f4 99 d5 3d e4 ee e0 3c
       -0.15343744 0.013369642 0.10429755 0.027457662
000330 5c 59 98 bd 4b 09 86 bd 17 e6 cb bb 11 ee 27 3e
       -0.07438919 -0.06544741 -0.006222497 0.16399409
000340 6b 09 70 3d 12 fd 0f be 03 e3 31 3e 86 b7 02 be
       0.05860273 -0.14061382 0.17371754 -0.12765321
000350 de 2e d5 3d b6 32 8e ba bd 23 cf 3c 32 69 12 bd
       0.1040933 -0.0010848853 0.025285596 -0.035744853
000360 98 8f 45 be fa 73 b3 3d b0 96 07 be 07 ce a9 3d
       -0.19293058 0.08762355 -0.13241076 0.0829125
000370 e2 d4 a8 3c c6 40 2f 3e 2c 88 77 3d 16 01 74 3d
       0.020609323 0.17114553 0.060432598 0.059571348
000380 a9 25 96 3d ae c8 3a bc 24 98 be 3d f9 1a 34 be
       0.07331402 -0.011400385 0.09306362 -0.17588414
000390 9f c7 04 bd dc 96 21 be a9 3b ca bd 85 28 8e be
       -0.032416936 -0.15780205 -0.098746605 -0.2776529
0003a0 6b bb 03 be bc 8b 14 3e 42 7f 62 3d a0 31 83 be
       -0.12864463 0.1450643 0.055297144 -0.25623798
0003b0 14 ed 51 3d 53 3e e8 bd c8 b7 ca bd bc a3 3e be
       0.051251486 -0.113400124 -0.09898335 -0.18617147
0003c0 e4 20 4f bd 0b f4 6d 3e 4c 78 ec bd 09 ca 35 bb
       -0.050568476 0.23237626 -0.11546382 -0.002773883
0003d0 19 aa 88 3d a1 da b5 bd 34 ef 19 3e 2a 32 ea 3c
       0.066730686 -0.08879591 0.15032655 0.028588373
0003e0 d6 c3 f7 bc f2 87 75 bd 40 fe e2 bd f1 b3 87 be
       -0.030244749 -0.0599441 -0.110836506 -0.26504472
0003f0 b2 27 e8 bd b2 79 e0 3c 7d 14 22 bd e0 6b 75 3c
       -0.11335696 0.027401779 -0.03957032 0.014979333

sequential_3/conv1d_13/conv1d_bias f4 [32]
000000 aa 2c a0 3c fd ea 69 3b 0d f0 b8 bb ad aa 6a bd
       0.019552547 0.0035693042 -0.0056438507 -0.057291675
000010 a1 ca 01 bb 82 f4 01 3b 93 fc 15 3a 41 f6 a9 3a
       -0.0019804614 0.0019829576 0.00057215354 0.0012967066
000020 8c 77 40 bc 44 d2 b1 3b 5b fc 56 3c 60 5d 3d 3d
       -0.011747252 0.005426677 0.01312169 0.046231627
000030 8c 15 91 bd b2 e0 89 3c 44 b2 aa ba ef 72 34 bd
       -0.07084188 0.016830776 -0.0013023098 -0.04405492
000040 af c5 84 bc b1 74 5e 3c 1a a2 bb bc 4a b1 57 bd
       -0.016207544 0.013577626 -0.022904444 -0.05265931
000050 10 a1 0b 3d 9d 8e 08 bb 11 31 1c bc c5 3f 2f bc
       0.034089148 -0.0020836957 -0.009533183 -0.010696356
000060 1f e7 f1 3c 89 2c 8c bd 48 9a e7 bc 40 f7 d4 3a
       0.029529152 -0.06844432 -0.02827181 0.0016248003
000070 18 24 93 bd 60 c5 80 3b 57 1b 26 bd 14 a2 92 bd
       -0.07184619 0.003929779 -0.040553417 -0.0715982

sequential_3/conv1d_14/conv1d/ExpandDims_1 f4 [64, 1, 3, 32]
000000 16 ba 8b be a4 59 5d 3a 59 5c 16 bd 7e 30 30 3d
       -0.2729041 0.00084438385 -0.036709163 0.043014996
000010 bd 10 a1 bc e9 8f ce bd 2a 17 a0 bd 56 22 27 bd
       -0.019661302 -0.100860424 -0.07816918 -0.04080423
000020 fa b1 8b bd 57 28 c7 bd d8 e1 1a be 49 7a 08 3e
       -0.06821056 -0.09724491 -0.15125215 0.13327898
000030 80 5f f1 bd 44 3e e5 bd f6 d6 c9 bc c6 05 ea 3d
       -0.11785793 -0.11193517 -0.024638634 0.114268824
000040 6a 0e a8 bd 23 ca 3b bd 0b e1 6f be 15 54 7c 3d
       -0.08205874 -0.04584707 -0.23425691 0.061603624
000050 e4 c3 2d bd 72 b7 c4 bd 85 13 4b bd 85 29 d6 bc
       -0.042423144 -0.09605302 -0.049579162 -0.026142845
000060 b7 32 ab bd bc 85 57 bd 51 29 d4 3c c8 16 c2 3d
       -0.083592825 -0.052617773 0.025898607 0.094770014
000070 72 58 3c be 1a 10 95 3c 4a fb 64 bd e5 41 8e bd
       -0.18393114 0.018196154 -0.05590371 -0.06946162
000080 0c 2c 33 3e bf 7a d0 bb 3e 24 ce 3d df 58 d4 bd
       0.17497271 -0.0063622887 0.100655064 -0.10368513
000090 95 5e 11 be 18 cb cb bd b7 09 e3 bd e1 d1 8b 3d
       -0.14196236 -0.099508464 -0.11085837 0.068271406
0000a0 52 3e 04 3e 68 ee c3 bc fc e4 12 be 8c d8 2e 3e
       0.12914398 -0.023917392 -0.14345163 0.17074794
0000b0 be d1 ab 3b f6 b2 d9 bc 7d d7 9c bd ce c4 a6 3d
       0.005243509 -0.026574593 -0.07658289 0.08143006
0000c0 8f 03 32 bd 15 23 e6 3c b6 4d ba 3c 31 6b 10 3c
       -0.043460425 0.0280929 0.022742134 0.008814619
0000d0 f1 81 8e 3d c4 01 b5 3d 1b 80 19 3e 95 25 79 3d
       0.06958378 0.088382274 0.14990275 0.060826857
0000e0 0e 4f de ba a4 14 f8 3c c0 5a b5 3c 50 bd d4 bc
       -0.0016960816 0.03028328 0.022138 -0.025969177
0000f0 3f e2 29 3e a9 1d 49 3e 7e 84 0b 3e db 5c 21 bb
       0.16590212 0.1964022 0.1362476 -0.0024621997
000100 3e d7 66 bd a4 9d 7d be 2f c1 65 3d 22 08 ef 3d
       -0.056357615 -0.24767166 0.056092437 0.11671473
000110 ca d5 08 3d 74 ff ab 3d b6 ec 23 3e 05 6b 2c be
       0.03340701 0.08398333 0.16008267 -0.168377
000120 7b b4 f9 bb 3b a3 08 be 47 9d 2c 3d e1 b5 fb 3d
       -0.007620392 -0.13343517 0.04214218 0.1229055
000130 61 20 66 be 81 8a 98 be d3 9e 8f 3d 7e 7d 94 3e
       -0.22473289 -0.2979317 0.07012715 0.29001993
000140 28 61 f7 bd 01 24 6d 3d ec d0 94 bd d5 19 44 3c
       -0.12079078 0.057895664 -0.07266411 0.011969049
000150 10 b6 e6 bd 05 34 32 bc 72 bd d4 bd 7d 77 62 bd
       -0.112651944 -0.01087666 -0.10387696 -0.055289734
000160 2c e9 24 3d c0 a0 2f bc 3c 4e a4 3d 85 0f 2c bc
       0.040261433 -0.010719478 0.080227345 -0.010501747
000170 eb fe 1b be ef 24 86 3e 3b 83 92 3c 97 90 5a 3e
       -0.15233962 0.26200053 0.017884841 0.21344219
000180 d2 31 0f 3d f4 22 ce bd 4c e9 a5 bd cc 6f 3b bd
       0.03495962 -0.100652605 -0.081011385 -0.045760915
000190 04 ac 9f 3c 8d 0c a7 3c b1 00 36 bd a6 b4 fe bc
       0.019491203 0.020391727 -0.044434253 -0.031092
0001a0 d1 1c dd bb f4 00 cb bc 95 32 85 bd 99 3c 43 3d
       -0.00674782 -0.024780728 -0.065037884 0.047665212
0001b0 93 e9 f6 bd 09 d0 a3 bd cf cf 8a bb 28 86 5b 3d
       -0.120562695 -0.07998664 -0.0042361985 0.05359474
0001c0 e0 79 50 bd 28 8f b1 bd a7 ae 02 be 71 b6 29 3d
       -0.05089748 -0.08669883 -0.12761937 0.041433755
0001d0 84 78 5c 3c b6 2c 3e bb 5d ff d8 3c 2a d1 b0 3d
       0.013456468 -0.002901835 0.026488954 0.08633645
0001e0 a3 ed d3 39 24 f3 53 bd 3d a8 ad bc b2 cc cb bd
       0.0004042211 -0.05174555 -0.021198386 -0.09951152
0001f0 04 7a 1b bd 0a cb 00 bc 62 51 ee 3d 87 f9 49 3e
       -0.03795816 -0.007860908 0.11636616 0.19724093
000200 b9 3a 55 3d 89 55 a3 3d 78 f7 50 3d c9 3f 03 3e
       0.052057955 0.07975299 0.051017255 0.12817301
000210 9f 8f fd 3d 6a b4 4e 3d 2e ee e4 3d 64 a6 15 bd
       0.12380909 0.050465025 0.11178242 -0.036535636
000220 d4 4a 7b 3d f3 cb 73 3d 16 92 53 3b 9e 17 b1 3d
       0.06135066 0.059520673 0.003228312 0.08647083
000230 56 a0 ab 3d 48 0f 82 bc cd 5e 05 3c 5e 4c 8a 3d
       0.08380191 -0.015876427 0.008140278 0.06752847
000240 9f 20 09 3c c7 7b 88 3d 5b 1d 02 be 4e 09 d1 3d
       0.008369594 0.06664234 -0.1270651 0.10206853
000250 d3 95 6d bc c7 06 2c 3e 5f 90 7b bd 58 b5 1e bb
       -0.014501053 0.1679946 -0.06141698 -0.0024216976
000260 ad e7 8e bd 28 c3 d8 bc 84 5c f0 3d eb 25 97 bd
       -0.069777824 -0.026460245 0.11736396 -0.07380279
000270 c0 23 96 3d 68 3e 81 3d 30 fa 4a 3d 5f 73 2e 3b
       0.073310375 0.06310731 0.049555004 0.002661906
000280 39 ed 08 3e 20 76 8a 3e 71 de aa bd 67 cf c0 bd
       0.13371743 0.27043247 -0.083432086 -0.09414559
000290 13 09 94 bd 0a 01 3e bd 44 e6 4f 3d 91 88 cd 3d
       -0.07228293 -0.04638771 0.050756708 0.100358136
0002a0 41 8a 44 3e 86 3d 36 3e 2e ca 37 3d b2 7c fa bc
       0.19193365 0.17796907 0.044870548 -0.030577037
0002b0 39 e2 0e 3e 14 fb 1e be 34 a0 43 bd c6 c8 b5 bd
       0.13953485 -0.15525466 -0.047760203 -0.08876185
0002c0 01 13 6e 3e 7f af 0f be c4 4a ae bc 6b 2b 2f 3d
       0.23249437 -0.1403179 -0.021275885 0.042766016
0002d0 26 84 62 3d 05 5c 23 3e 34 9c a3 3c 82 32 86 3d
       0.055301808 0.15953071 0.019971944 0.06552602
0002e0 78 7b 55 3e a8 61 d3 3c 9d 83 6e 3e 09 01 3f 3e
       0.20847881 0.025803402 0.23292394 0.18652739
0002f0 f5 84 b5 bd 53 1a 9d 3d fd 19 a3 bd cb 7d 72 3d
       -0.0886325 0.076710366 -0.07963941 0.059201997
000300 c8 e3 ef bd c7 0f 28 3d 0b 23 24 3d fa b2 c7 bc
       -0.11713368 0.04103067 0.040072482 -0.024377335
000310 52 0d 5d 3e 5b 19 1b bd 4f 48 8b bd f8 03 3b bd
       0.21587113 -0.037865978 -0.06800901 -0.04565808
000320 d9 7a 09 3e bc 07 1f 3d 2d 8b 77 3c f2 d2 5e 3e
       0.13425769 0.038825735 0.015108866 0.21760157
000330 6b 4a 0e 3e 55 69 a2 3d 91 ca d4 bd 09 a7 15 be
       0.13895576 0.07930247 -0.10390199 -0.146145
000340 13 95 d7 3d 81 52 06 be 8f e9 ca bd 54 c5 1b 3e
       0.105264805 -0.1311741 -0.09907829 0.15211993
000350 62 f0 fe bc 4f ac 85 bd be a6 7a bd 6e dc e7 3c
       -0.031120483 -0.06527006 -0.061194174 0.028303351
000360 ee 95 ff bd af 00 36 3e e2 42 78 bd 3f 89 f1 3c
       -0.12479769 0.17773698 -0.06061066 0.02948439
000370 73 93 d3 3d 82 d3 4e bd 6b 10 8a 3e 5c de 2f 3d
       0.10330858 -0.05049468 0.2696565 0.042936668
000380 54 bb af bd 71 52 35 be 39 da bb bd e6 9f b1 3c
       -0.08580652 -0.1770723 -0.09172482 0.02168269
000390 e9 fb 79 3d 03 cd 69 be 4b 40 47 3e 81 79 0b be
       0.061031256 -0.22832112 0.1945812 -0.13620569
0003a0 12 65 5a 3e ab 10 40 bd 35 e3 6d 3e ad 5c 30 be
       0.21327618 -0.046890896 0.23231204 -0.17222853
0003b0 39 b5 70 3d e8 7f 25 3e 67 71 67 be 06 27 06 3e
       0.058766577 0.16162074 -0.22601853 0.13100824
0003c0 f4 6f 18 3e 7b aa 01 3d ac f8 a9 bc 8c b7 30 3d
       0.14886457 0.031656723 -0.020748459 0.043143794
0003d0 b9 6d fb bd 2d 3e 24 3e d4 e3 1a 3e 28 1c 5f 3c
       -0.12276787 0.16039343 0.15125972 0.013617553
0003e0 d4 0f ca 3b 2c 87 7f 3d 40 8f 94 be 33 b6 47 be
       0.0061664376 0.06238477 -0.2901554 -0.19503097
0003f0 0b 32 94 3a e8 22 69 bd 97 88 de 3d be 62 d1 3d
       0.0011306418 -0.056918055 0.10865896 0.10223912

sequential_3/conv1d_14/conv1d_bias f4 [64]
000000 e3 24 8a 3d 13 c9 26 3d 10 f2 16 3e 06 e7 9b 3d
       0.06745317 0.040719103 0.14740777 0.076124236
000010 7c 34 32 3b 0b bf e7 bc 88 c2 b5 bc 71 d0 d2 3d
       0.0027191928 -0.028289339 -0.022187486 0.10293663
000020 6c 92 82 3d 6e 36 1e bd af 97 10 3d 5b 74 00 3e
       0.06375584 -0.038626127 0.035300907 0.12544386
000030 1f 0e 91 3d 14 0d 99 3d 41 17 8e bd 5a 96 99 3d
       0.070827715 0.074731976 -0.06938029 0.074993804
000040 d5 d6 9e 3d a8 f3 70 3d fc 49 0a 3d bc 8f 8f bd
       0.0775582 0.05882612 0.033761963 -0.07009837
000050 ab e1 57 3d d6 3c 6b 3b 0b f4 7c 3d 6c c8 5b 3d
       0.052705448 0.0035894415 0.061756175 0.053657934
000060 2f de 9c 3d 96 37 f1 3d 98 a7 84 3d 73 42 23 3c
       0.07659566 0.1177818 0.064772785 0.009964573
000070 f3 7a b7 3d c0 5d 77 3d f2 7a ea 3d 7f cc 06 3d
       0.089589976 0.06039214 0.11449231 0.032909866
000080 ab ca 50 3d dc 04 0f 3e 10 46 91 3d ac e6 c4 3d
       0.05097453 0.13966697 0.070934415 0.0961431
000090 db 8c 8a 3c 9c a1 44 3b 39 de 84 3d 7a 7e ab bc
       0.016912868 0.0030003553 0.06487698 -0.020934332
0000a0 44 a0 74 3e eb 19 82 bd cf 4a 48 3c f9 23 1e 3e
       0.23889261 -0.063526 0.012224867 0.1544341
0000b0 79 2b ee 3a 3e 3b a2 3d 07 a1 34 3e e6 c5 71 3e
       0.0018170915 0.07921456 0.17639552 0.23610649
0000c0 ef 2d 5e 3d 8d 27 1c bd 6e e2 0b 3b 67 90 a0 3c
       0.054243024 -0.038123656 0.002134468 0.019600106
0000d0 a7 3f 6c 3d b5 e7 0f 3d fd c8 7c 3d 0b 44 05 3d
       0.05767789 0.035133082 0.061715115 0.032535594
0000e0 6f 67 3c bd e9 e3 82 bd 53 69 30 bd 3f 6d bb 3d
       -0.04599708 -0.06391127 -0.043069195 0.091516964
0000f0 f2 93 47 3c 8e 30 87 3d 26 17 e6 bc b3 17 30 bd
       0.012181269 0.06601058 -0.02808721 -0.04299135

sequential_3/conv1d_15/conv1d/ExpandDims_1 f4 [64, 1, 3, 64]
000000 30 8d ee 3b a3 dc ba 3c 5f fa b2 3d a8 04 c0 3d
       0.0072800145 0.022810286 0.08739161 0.09375888
000010 25 0e 16 3d 9a 51 e6 3d 07 81 2f 3c aa f4 bc 3d
       0.036634583 0.11246033 0.010711915 0.092263535
000020 ce 36 c3 3d c7 85 d2 bd 6e 7d 39 3d a8 6a 34 3e
       0.095319375 -0.10279422 0.045285635 0.17618811
000030 94 1d 85 3d cd d2 9d bd da 26 ee bc 87 50 7f bd
       0.06499782 -0.07706223 -0.02907126 -0.062332656
000040 90 d6 93 3d 0c 0f c5 bc 7f 64 00 be 24 61 a0 3d
       0.07218659 -0.024055026 -0.12538336 0.07831028
000050 38 2c b4 bd 31 25 2d 3d 69 c1 33 bd a6 ed 93 3d
       -0.087974966 0.042271797 -0.043885622 0.07223062
000060 6f e3 b6 3d 54 b8 b5 3a 86 71 17 3c 61 bf 1c 3e
       0.08930098 0.0013864138 0.009243375 0.1530738
000070 fe 53 39 3c 0d 2e 3f bd 26 64 b0 bb fa 84 e9 3d
       0.011311529 -0.046674777 -0.0053830324 0.114023164
000080 63 9f c3 3d be 30 a8 3d c9 7e 15 3d 4d 9b b0 bd
       0.09551885 0.08212422 0.036497865 -0.08623371
000090 3d db 93 3d f8 e9 f0 3d 5f 08 01 3e 93 59 30 3d
       0.07219551 0.11763376 0.1260085 0.043054175
0000a0 10 ea 22 bd b8 09 90 bc 77 ee 78 3d a1 88 00 3e
       -0.039774 -0.01758276 0.060774293 0.1255212
0000b0 0b 45 1a 3e 94 11 21 3e 58 21 48 3d 45 a2 da 3d
       0.150654 0.15729362 0.048859924 0.10675482
0000c0 dc a8 86 3d 65 9f f7 3d ef e7 0e be 89 8e ab 3c
       0.06575176 0.12090949 -0.13955663 0.02094199
0000d0 af 30 3c bc 22 9f 5f 3d 86 52 67 3d 54 bc 29 3e
       -0.011486216 0.05459512 0.056475185 0.16575748
0000e0 2b f8 fa bc e0 be ad 3d 5f 0a 19 be ac 2f e6 ba
       -0.030635914 0.08483672 -0.14945363 -0.0017561815
0000f0 ed c4 a4 3c a0 a8 eb 3d 4c 95 70 3b 34 8b 9a bd
       0.020113433 0.11506772 0.0036710082 -0.07546082
000100 39 9c 3a 3d 46 e0 70 3c da 67 af bd ce 53 42 be
       0.04555914 0.014701908 -0.0856473 -0.18977281
000110 0e f6 74 bc 1e 74 75 3d a2 f3 32 be e0 52 eb 3d
       -0.014951242 0.05992519 -0.17475751 0.114904165
000120 a4 af 9d 3d 16 95 d2 bd 70 c1 01 be c5 01 23 bd
       0.076995164 -0.10282342 -0.12671447 -0.03979661
000130 a2 35 9f 3d dc d7 df bc df 98 ea bd 1c 6d 22 bd
       0.077739015 -0.02732461 -0.11454939 -0.039654836
000140 ad 93 da bd 0f 08 30 be a8 a6 86 3b f2 4b 13 bd
       -0.10672698 -0.17190574 0.0041092224 -0.0359611
000150 28 3a 20 3d 42 ce 13 be c4 4f 01 3d 2d 44 af bd
       0.039117962 -0.1443415 0.03157021 -0.085579254
000160 60 70 9b bb d7 8f 9c 3c 4c 4d 3d bd 7a cf 5c be
       -0.0047436208 0.019111557 -0.046216294 -0.21563521
000170 a6 60 22 be 9d e6 33 be cd 50 09 be 1d f4 91 3c
       -0.15857181 -0.1756844 -0.1340973 0.017816598
000180 26 9b 0f be ce e0 66 3d ae 8c 2d 3d 28 55 d8 bc
       -0.14024028 0.056366734 0.04237049 -0.026407793
000190 9c 12 f2 3c 14 73 43 be 6b cb 34 bd e7 b2 29 be
       0.02954989 -0.19086868 -0.044139307 -0.16572152
0001a0 5c 6e e4 bd 55 64 4c be 3a fe 58 be cb 5c 38 be
       -0.11153862 -0.19960149 -0.2119073 -0.18004148
0001b0 82 9a 5e be 15 35 a5 bd c2 e7 97 bc 71 1b 0a bd
       -0.21738628 -0.08066765 -0.018543128 -0.033717576
0001c0 e4 62 ab 3d 65 5a 83 bd a4 5f 34 3e 1d 2d bd bd
       0.08368471 -0.06413726 0.17614609 -0.0923712
0001d0 6f 95 e7 bd 51 ec 6c bd e9 fc 95 bc e4 b6 ea bd
       -0.11307799 -0.057842556 -0.018309074 -0.11460665
0001e0 6c 8c 09 be 24 35 fd bd 86 1e 93 3d 58 b7 2f 3e
       -0.13432473 -0.123636514 0.07183556 0.17159784
0001f0 c0 d9 b8 3d 3c bc 61 bd e3 94 74 3d b0 80 f2 bc
       0.090259075 -0.055111155 0.059712302 -0.029602379
000200 6e 6f d5 3b 6b f7 56 be 36 7d af bd e2 e7 5a 3c
       0.0065135276 -0.2099282 -0.08568804 0.013360949
000210 b4 e4 72 bd c9 8f 99 be 88 09 d9 3d cd bf 04 3e
       -0.05930014 -0.29992512 0.10597521 0.12963791
000220 3a 07 59 be 54 1b 2a be f5 5a eb bd f1 75 ee bd
       -0.21194163 -0.16611987 -0.11491958 -0.11643589
000230 18 ae 5e 3d 32 44 1b bd 9a 0c 5c bd b4 41 ef bd
       0.054365247 -0.037906833 -0.053722955 -0.11682454
000240 63 49 b2 bd 5b 1f 95 be 2a cb 99 3d a9 0f 50 be
       -0.08705404 -0.29125485 0.075094536 -0.20318474
000250 05 6a 37 3e 95 c2 58 3e 30 aa 1d 3b f9 f6 b9 3d
       0.17911537 0.21167977 0.0024057738 0.090803094
000260 ce 06 25 3e e5 8a 29 3d 9c d1 e1 3d 10 36 cd bd
       0.16115877 0.041392226 0.11026308 -0.10020077
000270 ab 40 2d 3e 75 29 ba 3d ec c2 6a 3d 64 09 92 bd
       0.169192 0.090899386 0.0573148 -0.07130697
000280 c2 9c 71 3d 2c 85 24 3c 69 70 a1 3d ed 1e 2c 3e
       0.058987387 0.010041516 0.07882769 0.16808672
000290 fe 66 3a 3d 2e 1b 96 3b 2e eb 20 be 8c 81 1b 3b
       0.045508377 0.004580877 -0.15714714 0.002372834
0002a0 b3 34 81 3e e4 8d 5e bd 23 1c 36 be d4 a3 dc 3d
       0.2523552 -0.054334536 -0.17784171 0.10773435
0002b0 c7 ff 03 3e 76 7c 6f be cf 47 c7 bc 02 bb 89 3d
       0.1289054 -0.23387322 -0.024326233 0.06725122
0002c0 c8 d4 93 bc a3 9f 16 be 17 a0 87 bd ed 02 79 be
       -0.018045798 -0.14709334 -0.066223316 -0.24317522
0002d0 fd 39 1a be 98 3b 96 be 8f 22 87 3d 8b c8 07 3d
       -0.15061183 -0.2934234 0.065983884 0.033150237
0002e0 10 3a c6 bd a9 44 8a be 23 3f 27 bd e9 14 24 3e
       -0.09679043 -0.2700551 -0.040831696 0.16023602
0002f0 d2 82 22 be 3b ee 5c bd 32 80 86 3d 82 b8 e7 bd
       -0.15870216 -0.05393813 0.0656742 -0.11314489
000300 3c d4 e7 3a 38 c8 c3 bd b7 f4 27 3d 48 13 0e 3e
       0.0017687152 -0.09559673 0.041004863 0.13874543
000310 33 4f 07 bd 29 a9 48 bc 96 35 92 bc ca 59 1e 3d
       -0.033034515 -0.012247362 -0.017847817 0.03865985
000320 44 88 19 3e 05 16 dc bb 2e 94 20 3d cf 16 d4 3d
       0.14993387 -0.006716492 0.039203815 0.10355913
000330 93 27 3b bd e3 ca a2 bd 4c 98 c1 3d a4 98 e1 3c
       -0.045692038 -0.07948854 0.094528764 0.027538605
000340 f7 48 11 3e 55 f6 00 3e 20 3e 2b 3e 76 a1 5b bc
       0.1418799 0.12593968 0.16722918 -0.0134051945
000350 84 36 0f bd a5 38 a8 bd cb 00 a6 bd 5a 6a ac bd
       -0.0349641 -0.08213929 -0.0810562 -0.084187225
000360 cb 0d 04 bd bb 64 79 bd 28 57 5e 3d cc 44 e0 bd
       -0.032239717 -0.06088708 0.054282337 -0.10950622
000370 8d 53 8a 3d 5d 50 55 bd 0b 2c a2 3d dd 22 26 3b
       0.06754217 -0.052078594 0.07918557 0.002535037
000380 63 a6 97 3c 0d 88 b6 bd fa c0 8c 3b 2a 63 c1 3d
       0.018511957 -0.089126684 0.0042954655 0.09442742
000390 58 83 54 3d 1c 2d a3 bd 07 23 25 3e af 62 83 bc
       0.05188307 -0.07967588 0.16126643 -0.016038267
0003a0 e0 47 43 3e aa a4 af bc 07 26 a7 3d 76 79 84 3d
       0.19070387 -0.021440823 0.0816155 0.06468479
0003b0 9c 6c 27 be 42 2c 8c bd 22 d3 b3 3c 29 bd 19 3e
       -0.16350025 -0.06844379 0.021951262 0.15013565
0003c0 66 ba 78 3d e6 ea 61 bd 80 e3 07 3e 27 cb 9a bd
       0.06072464 -0.055155657 0.13270378 -0.075582795
0003d0 49 8a 9b bd 5e b5 b4 bd 8f 8a 51 3d c3 3a 2d 3d
       -0.07594735 -0.088236555 0.05115753 0.042292368
0003e0 a1 c3 55 3c 7a 20 ad 3d 94 dc 8f bd fa 40 e5 3d
       0.01304713 0.0845346 -0.07024494 0.11194034
0003f0 26 f2 dc 3d d7 29 d7 3a 66 83 84 bc fd 46 8c 3d
       0.10788374 0.0016415667 -0.016175937 0.068494774

sequential_3/conv1d_15/conv1d_bias f4 [64]
000000 85 0b 65 3c 88 8c 18 3d ea 2b 86 b9 ca a9 48 3d
       0.013979797 0.037243396 -0.0002559119 0.04899005
000010 a3 56 90 3d 68 c9 ea 3c 79 0d e1 bc 3f 6c 8b 3c
       0.07047775 0.028660491 -0.027472245 0.01701939
000020 8c cd a3 3c 73 2d b5 3b 9d eb a8 bb 32 6a ad bc
       0.019995473 0.0055290996 -0.0051550404 -0.021168802
000030 1d c9 f5 3c dc 36 49 bd 1e 15 c0 3c 3c 56 67 3d
       0.030003125 -0.049124584 0.02344757 0.056478724
000040 7a 2b 80 3a b0 1c 96 bc 29 78 ae bc 69 af 95 bd
       0.0009778582 -0.018324226 -0.021297531 -0.073088475
000050 83 e0 86 3b 7b 46 85 bc 41 37 a2 bc 76 0f d3 bd
       0.0041161194 -0.01626896 -0.019801738 -0.10305683
000060 f8 55 23 bd 49 1d 6a 3c b4 cb 02 3d 10 a1 81 3c
       -0.039876908 0.014289209 0.031932548 0.01582387
000070 d8 0e ef 3c 3e 35 4b bc d8 88 49 3d 59 b9 cf bc
       0.029181883 -0.012402831 0.04920277 -0.025356935
000080 d2 f6 83 bc 00 c7 ab 3b 72 fa ae bc 5a f1 73 bd
       -0.016108904 0.0052422285 -0.021359656 -0.059556343
000090 98 31 7f 3d 5b 99 b2 3c f2 63 96 3c bc 31 75 3d
       0.062303156 0.021801641 0.018358205 0.059861884
0000a0 7a 3a 91 3d d4 34 16 3b 27 e0 00 bd 64 13 85 3c
       0.07091232 0.0022919672 -0.03146377 0.016244598
0000b0 2e 64 a7 bc 2f 8f 3a bc 5f 49 05 3d fe b0 b3 bc
       -0.020433512 -0.011386677 0.032540675 -0.021934982
0000c0 13 85 15 bd 1a 10 02 3e f6 ba bc ba f7 fd ae bc
       -0.036503863 0.12701455 -0.001439898 -0.021361334
0000d0 b2 5c ce 3b 9c d2 71 3d 2a f3 0f 3d 1d 35 cd 3c
       0.0062976712 0.059038743 0.03514401 0.02504974
0000e0 66 e7 88 bb 53 91 b8 bd 14 08 87 bc 5b 33 9c 3d
       -0.0041779755 -0.090120934 -0.016483344 0.07626983
0000f0 57 6d c1 3d e0 29 78 bd 91 a3 c3 3d 5d 3b 4a 3d
       0.09444683 -0.06058681 0.09552682 0.04937302

sequential_3/dense_10/MatMul/ReadVariableOp/transpose f4 [64, 32]
000000 5d f8 0d be b9 c2 b5 bd b6 3a 22 3c 32 6d 66 3e
       -0.13864274 -0.08875031 0.009901693 0.22502592
000010 d5 6f 3a 3e 29 ae 00 3e e4 39 95 3e 14 f2 86 bd
       0.18206723 0.12566437 0.2914573 -0.065891415
000020 ac 46 14 be 7c f4 99 3d 44 18 0d 3d 2b 40 9d 3b
       -0.14480084 0.07517335 0.03444697 0.004798909
000030 70 f5 3b be 08 cb e1 3b 52 4b 68 be f8 ef 29 3e
       -0.18355346 0.0068906583 -0.22684982 0.16595447
000040 3d ac 28 be a5 80 a9 3e 09 d1 97 3d b4 dd 92 3e
       -0.16471954 0.3310596 0.07412917 0.2868477
000050 79 09 47 bd 37 d4 c8 3d 34 ee 9a bc db e4 00 3e
       -0.04859302 0.09806102 -0.018912412 0.12587301
000060 af 4b 8e 3e 25 b7 c2 bd a0 f9 9c ba 9b 14 5f 3e
       0.27792117 -0.09507588 -0.001197625 0.21785204
000070 cf b4 09 3e 88 04 99 3e 50 d2 65 3e 17 f1 73 3e
       0.13447879 0.2988627 0.22443509 0.23822437
000080 c8 ce 56 3e 55 4a 20 be 6c ca a9 3d af 4a 61 3e
       0.20977318 -0.15653355 0.08290562 0.22001146
000090 18 eb 52 3e e3 bd 7e 3d 29 17 82 3e 03 b4 1a 3e
       0.20597494 0.06219281 0.25408295 0.15107732
0000a0 2f fc 72 be e4 5c 37 bd 5c c8 b9 3e 47 67 00 3e
       -0.23729013 -0.04476632 0.36285675 0.12539397
0000b0 a8 65 03 3e 63 ec bf bd 26 00 2f bd 71 ce 7e be
       0.12831748 -0.09371259 -0.04272475 -0.24883439
0000c0 ed df 34 3e f0 20 3a 3e 4a 3c aa 3d cb b8 f3 3d
       0.17663546 0.18176627 0.083122805 0.11900481
0000d0 30 b4 76 be d4 76 16 3e 50 64 2e 3e 69 f4 d4 bd
       -0.24092174 0.14693767 0.17030454 -0.1039818
0000e0 32 93 82 be 26 b2 ff bd dd ad a3 3d a5 8a 0e be
       -0.25502926 -0.12485151 0.07992146 -0.13920076
0000f0 27 fa 0e 3e f7 7e 02 be ad c4 3e 3d ef cf 34 3e
       0.13962613 -0.12743746 0.046574283 0.17657445
000100 b5 64 97 3d b6 16 ae bd 6e d0 d0 3d dd 8a 08 3e
       0.07392255 -0.085004255 0.10196005 0.13334222
000110 67 9c 05 3e d4 41 42 3e 89 e6 8e be c7 e4 6b 3e
       0.13047944 0.18970424 -0.2791026 0.2303649
000120 c5 cc 29 3e e1 12 d5 bd f3 a7 b7 3d 75 4e 61 3e
       0.1658202 -0.104039915 0.08967581 0.22002585
000130 da 16 87 3d f7 ab 4b be 14 57 85 3e 10 a2 a1 3d
       0.065961555 -0.19889818 0.26042998 0.07892239
000140 01 2d 7f 3c 30 f8 95 bc 40 b4 ac bc 5f 73 0d bd
       0.015574695 -0.018306822 -0.021082044 -0.034533855
000150 f1 45 26 be 75 e1 bd bc 09 08 ca 3b e7 3c ad be
       -0.16237618 -0.023178795 0.0061655086 -0.33835527
000160 58 4d 48 be fb 25 2c 3d 12 d1 c3 3c d4 0e 99 be
       -0.19560754 0.04202841 0.023903403 -0.29894125
000170 19 76 80 bd ad d0 2e 3e 71 f5 56 3d 60 e2 22 bd
       -0.06272525 0.17071791 0.052480165 -0.03976667
000180 98 78 5a 3d 7f fb 06 3e 9a 42 ab be 13 8d bf 3d
       0.053337663 0.13181876 -0.3344925 0.0935308
000190 b1 1c f6 3d f3 b3 70 3d 55 f1 04 3e f5 9d dd be
       0.12017191 0.058765363 0.12982686 -0.43284574
0001a0 b4 6f 62 bd 0f a4 07 3d a1 e5 87 be f3 2a 22 be
       -0.05528231 0.033115443 -0.2654238 -0.15836696
0001b0 dc 01 ca 3e 91 20 18 be b6 c7 8c be fc 5d 07 3e
       0.39454544 -0.14856173 -0.27496117 0.13219446
0001c0 67 17 e1 3a 50 40 a5 be 63 30 c0 bd 84 71 fe bd
       0.0017173112 -0.3227563 -0.09384229 -0.12423995
0001d0 fc 52 1d 3d 27 b3 36 be e0 00 63 bd 4b c0 b7 3e
       0.03840922 -0.17841779 -0.055420756 0.35888895
0001e0 f0 fd 3f be 62 23 ac 3d 15 dc 77 be 11 75 5b 3e
       -0.18749213 0.08405186 -0.24205048 0.21431376
0001f0 f8 fa 99 3e 6e ff 65 bd 87 b7 5a 3e 2e d8 9f 3c
       0.30074286 -0.0561518 0.21359073 0.019512262
000200 c9 02 93 3c f4 da 92 3d fe 37 fe bc 65 2c 94 bd
       0.017945664 0.07170668 -0.031032559 -0.0723503
000210 3b cf b9 bd 98 ec 67 3d 80 41 cd 3d cc 89 73 be
       -0.09072729 0.056622118 0.10022259 -0.23783034
000220 0e 75 9f 3d 07 ba 0d bc 0e c1 7e 3d 12 c6 b4 3d
       0.07785998 -0.008650309 0.06219583 0.088268414
000230 08 81 f1 bd 41 5c 11 3e 09 6c 91 bd 9d a7 c7 3e
       -0.11792189 0.14195348 -0.07100684 0.38995066
000240 d2 df fd bc c2 8f 55 3d 53 56 49 bc 05 6d 93 be
       -0.030990515 0.05213905 -0.012288648 -0.28794113
000250 b3 ea 0a bc c5 bb a1 3d 35 14 21 be f9 33 75 bd
       -0.008478808 0.07897142 -0.15730365 -0.059864018
000260 da 50 7e 3e f8 bd 08 bd 2a 6e 8d bd 54 9e 31 bd
       0.2483553 -0.033384293 -0.06905778 -0.043363884
000270 b7 8b 25 3e e3 94 5a be ac 83 25 be 64 30 fa bd
       0.16166578 -0.21345858 -0.1616351 -0.12216261
000280 cc 27 24 be ed 14 8b be d2 25 9e 3d 44 9a 4e 3e
       -0.16030806 -0.27164403 0.077220574 0.20176035
000290 b8 79 83 be f0 36 be 3c 8e 08 ac 3d 2a 83 40 3e
       -0.25678802 0.023219556 0.08400069 0.18800035
0002a0 42 bb b0 bd d5 9e 1d be e8 7a 13 3b c3 48 29 be
       -0.086294666 -0.15392621 0.0022503678 -0.16531663
0002b0 7b 3d 62 be 22 0b 37 bd 6e c4 99 3e 7d ea 26 be
       -0.22093765 -0.04468835 0.30032676 -0.16300388
0002c0 80 3e 5f be 56 22 96 3e d2 59 b6 3e 47 46 c6 bd
       -0.21801186 0.2932307 0.35615402 -0.09681373
0002d0 af 46 42 3c 6b 30 fa 3c 1c 23 64 3c e6 26 14 3e
       0.011857673 0.030540666 0.013924386 0.14467964
0002e0 0a 72 08 3d 1f c2 82 3e 00 1b 46 3d de 41 ea bd
       0.03331188 0.25538728 0.048365593 -0.114383444
0002f0 70 f2 7f 3c 5a 5a 73 3e 2c e9 02 3e d5 99 94 3d
       0.015621766 0.23764935 0.1278426 0.07255904
000300 4d 56 3e bd 40 ce 7b be 72 e0 fc 3d fe 55 47 3d
       -0.04646902 -0.24590397 0.12347497 0.048665993
000310 69 41 95 3e 4a 77 5b bd 62 1a 02 3e 66 78 56 3e
       0.29151466 -0.05358056 0.12705377 0.20944366
000320 52 93 66 3d 28 19 a9 bd 87 6d 31 3e 4a 48 24 3e
       0.05629284 -0.08256751 0.17326938 0.16043201
000330 8d a4 03 3e 45 d1 0f be 64 a3 0a 3d fc 26 88 3e
       0.1285574 -0.14044674 0.033847228 0.26592243
000340 4f 69 a0 be 8d 08 a9 3d 76 2f e4 3c 97 0d b7 3b
       -0.31330344 0.08253584 0.027854662 0.005586337
000350 5e 96 5d 3e 66 ca 56 bd 0d 65 82 be 04 5a 8c 3d
       0.21639392 -0.052439116 -0.2546772 0.068531066
000360 7e 58 65 3e e4 dc 12 3d bf 58 a0 3d bb 24 35 be
       0.22397038 0.03585519 0.07829427 -0.17689793
000370 fd fe 0d bd a1 40 f6 3c 91 8a 97 3e 6e 09 6a 3e
       -0.034667004 0.030060114 0.29597905 0.2285516
000380 75 da 81 be 59 4f 86 be 1c 9a 36 3d 52 b9 7d be
       -0.25361982 -0.26232412 0.044580564 -0.24777725
000390 81 92 72 be f4 38 34 3e db 1d 2f 3e f5 a4 dc 3b
       -0.236887 0.17599851 0.17101233 0.0067335316
0003a0 b4 35 e7 3d 31 b2 ee 3d 1c 11 14 be 40 1a f5 3a
       0.1128954 0.11655081 -0.14459652 0.001869984
0003b0 e8 1e 1c 3e fe 1d 13 be 2a e3 27 bd f5 13 24 3c
       0.15246165 -0.1436691 -0.040988125 0.010014524
0003c0 ad 13 df 3d 58 c8 17 be d1 63 07 be 04 43 a1 bd
       0.10892425 -0.14822519 -0.1322167 -0.0787411
0003d0 4f 4e 08 3e 84 f4 ba 3c 25 bf 51 3e 3e 8e 2c be
       0.13311122 0.022821672 0.20483072 -0.16851136
0003e0 f2 e6 11 3e c2 c9 29 3d 68 4f 25 3e 28 10 e3 bd
       0.14248255 0.041452177 0.16143572 -0.11087066
0003f0 a5 76 30 3d 48 21 37 3d fa 1a bd bc 14 69 04 bb
       0.0430819 0.044709474 -0.023084152 -0.0020204233

sequential_3/dense_10/MatMul_bias f4 [64]
000000 b8 69 12 3d 7a ca 43 bd 2b a4 66 3d d4 9b 7c 3e
       0.035745353 -0.04780052 0.056308907 0.24668819
000010 fb 6a 9f bd dd 64 99 3d c8 15 45 3e e2 9b 31 bd
       -0.07784077 0.07489941 0.1924659 -0.043361552
000020 b5 41 20 3e 6e c0 d0 bc ed 7d a5 3d e7 4e 04 3d
       0.15650065 -0.025482383 0.08080659 0.03230181
000030 d2 0b 5f 3d 41 6e c7 3d 20 8c d6 3c 0b 7b a9 3d
       0.054454632 0.09737826 0.026189864 0.08275422
000040 0b 86 84 bd 88 62 77 3d 4a d9 2c ba 45 d4 24 ba
       -0.06470879 0.0603967 -0.0006593658 -0.0006287734
000050 cf 6c 8f 3d 8e 6e 63 3d 9f 4e f3 3c 32 d6 6b 3d
       0.070031755 0.055525355 0.029700575 0.05757732
000060 0f 40 1f bd 71 61 64 3d d3 02 0c bd e7 1d 66 bd
       -0.03887945 0.05575699 -0.03418238 -0.05618086
000070 63 26 a5 3e 57 68 77 3e 23 81 b2 3d b6 e4 f9 3d
       0.3225585 0.24160896 0.08716037 0.12201826
000080 c9 89 32 3d 13 ee 1c be 72 0e 87 3d e2 b9 1a 3e
       0.043588433 -0.15325193 0.06594552 0.15109971
000090 58 51 4d 3d 82 99 6f bd 03 aa 67 3e 95 74 38 bd
       0.050126404 -0.058496006 0.22623448 -0.045033056
0000a0 86 f8 b0 3c b7 cc 65 3d 05 4d 31 3e 7b a7 1d 3e
       0.02160288 0.056103434 0.17314537 0.1539592
0000b0 64 9c be 3d ca c6 ff 3d e7 f0 25 3d 45 e0 9a 3d
       0.09307173 0.12489088 0.040512946 0.07562307
0000c0 54 59 dc 3c 4c 59 44 3e c9 b2 88 3d f9 f6 82 bc
       0.026898064 0.19174689 0.066747256 -0.015986906
0000d0 61 6d 4f 3d 16 8c a8 3c 17 99 46 3d f5 8b 6e bc
       0.05064142 0.02057461 0.04848584 -0.014559736
0000e0 7c 36 98 3e a1 22 04 3c c1 df 96 3c b3 f7 6d bc
       0.29729068 0.008064897 0.018417241 -0.014524388
0000f0 fb 87 27 3d 74 c5 ad 3d de bc 5b 3e 98 76 bd 3c
       0.040901165 0.08484927 0.21458766 0.023127839

sequential_3/dense_11/MatMul/ReadVariableOp/transpose f4 [17, 64]
000000 48 65 30 3d f2 86 35 3e c4 93 6e 3e 32 0c 84 be
       0.04306534 0.17727259 0.23298556 -0.25790554
000010 f5 79 a1 bd d9 71 4b be 2f 89 c7 3d b0 4f d6 bd
       -0.078845896 -0.19867648 0.097429626 -0.10464418
000020 a6 18 c4 be 53 6d 20 bc 8e b8 fc 3c 57 24 0d 3e
       -0.38300055 -0.00979169 0.030849721 0.13783394
000030 ec e3 d8 bd 66 8e 86 bd cb 8c 56 3e 9c 54 60 be
       -0.10590348 -0.06570129 0.20952146 -0.21907276
000040 87 ec 36 3e 13 19 29 3e b7 6a 89 3e ce 51 39 3e
       0.17863666 0.16513471 0.2683923 0.18097612
000050 c3 bf ef 3d 03 a8 98 3d cb 38 7a 3d 9f f9 be be
       0.117064975 0.07453921 0.06108932 -0.3729982
000060 47 6d 43 be 21 0a 7a 3e 2f 6c 70 3d ff 25 2d bd
       -0.19084655 0.24417926 0.058696922 -0.042272564
000070 ff 64 48 3d b6 e8 72 3e 9f a5 82 3e e9 84 95 3c
       0.048924442 0.23721585 0.25516984 0.018251853
000080 b1 8e 88 bd f5 8c 09 3e 2a 21 65 be fc 1f a4 bd
       -0.06667841 0.13432677 -0.22375932 -0.08013913
000090 7d 01 c5 bd 7a d2 1b 3e 2e 20 04 3e b0 5b 92 be
       -0.096194245 0.15217009 0.129029 -0.28585577
0000a0 06 ff 62 be ef 84 28 3e d5 58 3b 3c 3a 32 cb 3d
       -0.22167596 0.1645696 0.011434753 0.09921689
0000b0 96 e4 1f 3e 70 96 05 bd 97 16 63 be 54 b1 47 3e
       0.15614542 -0.03261417 -0.22176586 0.19501239
0000c0 d0 ba 4c be 2f 08 15 be ca 3d 33 3e cd 33 81 3e
       -0.19993138 -0.14553903 0.1750404 0.25234833
0000d0 d3 16 53 3e 12 b5 c4 3c 4b 22 82 be d1 7d 8a 3e
       0.20614175 0.024012122 -0.25416788 0.27049115
0000e0 b9 f3 9b be 46 44 20 be 98 79 e6 bc 7a 8a 35 3d
       -0.30459383 -0.15651044 -0.028134152 0.044321515
0000f0 a3 b2 ae 3d bb 37 32 be ac 5c 87 3e 11 ca ab be
       0.08530166 -0.17404072 0.2643789 -0.33552602
000100 60 7e 45 be 89 60 5d 3e 12 32 88 be ff 4a 03 be
       -0.1928649 0.21618856 -0.266007 -0.12821577
000110 92 ee 0d be ad b9 96 be 2a 92 cd 3d 6f 95 89 3e
       -0.13860539 -0.29438534 0.10037644 0.2687182
000120 4a 38 73 bd 3c 5e 17 3e a3 34 83 3e 9f 7f e3 3d
       -0.059379853 0.14782041 0.25626096 0.11108326
000130 68 73 cd bb f9 34 3e 3e ea 49 c6 be 3e b8 51 bf
       -0.006269861 0.18574895 -0.38728267 -0.81921756
000140 1a 84 67 3d 7c 1c 98 3e a4 ad 8d 3e d1 c3 9b bc
       0.056522466 0.29709232 0.2767154 -0.019014271
000150 8f 6a 62 3e 3a 7e 72 be 8f 33 d0 be eb ff 8c bb
       0.22110961 -0.23680964 -0.40664336 -0.0043029687
000160 f4 fd 54 be bc 19 7c 3e eb 64 c6 3d 2f d4 29 3e
       -0.208 0.24619192 0.09687217 0.16584848
000170 b3 2f 57 be ef c5 02 3e b0 b6 1d 3e 61 1b 22 3d
       -0.2101429 0.12770818 0.15401721 0.03957689
000180 ad 8a 94 3d df cc 38 be 08 3f a1 3e 25 c0 f0 be
       0.07253013 -0.18046902 0.31493402 -0.47021595
000190 33 65 50 3e 96 43 62 be df fe 14 bf a5 68 38 3e
       0.20351104 -0.22096094 -0.582014 0.18008669
0001a0 ca 94 e5 bd 7f 53 63 3e 28 1d 2a 3e 00 60 e0 bd
       -0.1121002 0.2219982 0.16612685 -0.109558105
0001b0 29 df f1 3c 92 fd 1d be 2e 00 9b 3e 0f e6 39 3e
       0.029525356 -0.1542876 0.30273575 0.18154167
0001c0 70 6c 88 3d 29 39 70 bf 29 e6 6f bd 70 64 4e 3e
       0.06661308 -0.9383722 -0.058569107 0.20155501
0001d0 1c 34 6c be 7b eb be bd 7d 1f 9a 3e a9 32 3c 3e
       -0.23066753 -0.09322258 0.3010215 0.183787
0001e0 d2 a5 9a 3d f9 fc d2 3c 40 00 34 bd c4 bc db ba
       0.07551159 0.025755392 -0.04394555 -0.001676463
0001f0 d5 57 66 be 75 f0 97 3e c7 d8 87 3c 42 db d7 be
       -0.22494443 0.29675642 0.01658286 -0.42159468
000200 d7 5c 53 3e b6 57 80 3e fe 92 df 3a 47 b9 ec be
       0.20640884 0.25066918 0.0017057357 -0.46235105
000210 07 44 1c be c1 c7 89 3e a8 79 3c 3e e9 56 11 be
       -0.15260325 0.26910213 0.18405783 -0.1419331
000220 54 32 dd be 06 e2 5c 3e ca 4f 5f 3e 73 b0 cc bb
       -0.4320246 0.21570596 0.21807781 -0.0062466203
000230 50 2a 86 be ec 75 ca 3d f7 db 23 3e 79 31 7e bd
       -0.26204157 0.09885773 0.16001879 -0.0620589
000240 7a 49 8f be 3d 29 14 3c 5e aa 2f 3d 2b de 5a bb
       -0.27985746 0.009043035 0.042887084 -0.0033396583
000250 8b 41 39 be 47 af 50 3e 47 f0 bd bd a9 a8 86 bd
       -0.18091409 0.20379363 -0.09274345 -0.06575138
000260 0a 41 b4 3d a2 59 58 3d 25 8d da bb 7f da 63 be
       0.08801468 0.052819856 -0.006669658 -0.22251318
000270 73 db 6d bc 67 8a aa be e9 6f bf be fc 48 d4 be
       -0.014517653 -0.33308718 -0.37390068 -0.41461933
000280 db 3a 73 3c cc 8d dc bd bf f1 6e 3e 75 24 c0 be
       0.014845575 -0.10769233 0.23334406 -0.37527815
000290 db b2 4a 3e 5e e0 47 be 2a a8 99 3a e5 92 61 be
       0.1979479 -0.19519183 0.001172309 -0.22028692
0002a0 61 34 69 bd 3e 97 79 bc 6c 75 8b 3e 7f 1c 7a 3e
       -0.056934718 -0.015233813 0.27238023 0.24424933
0002b0 0e 75 36 3e 07 11 dd be bf 5c 9d be dc 64 6f 3d
       0.1781809 -0.43177053 -0.30734822 0.058445796
0002c0 5c 3a 11 3e e7 52 16 be b0 82 b6 be f6 86 19 be
       0.14182419 -0.14680062 -0.35646582 -0.1499289
0002d0 3e 1b f7 bd 59 a5 5f 3e a9 71 20 3e ff cf 2e be
       -0.12065743 0.21840419 0.15668358 -0.17071532
0002e0 4d 80 0a be da 26 ad 3e e7 3d e8 3d 7c bf 5a be
       -0.13525505 0.33818704 0.11339932 -0.21362108
0002f0 8a d6 34 3e cf d0 ef 3d 22 9c 92 bd 09 ee a5 3e
       0.17659965 0.11709749 -0.07158686 0.3240817
000300 d8 86 9a 3e 7b b3 0d be eb 30 a4 bd dd 2a 46 be
       0.30181003 -0.13837998 -0.08017143 -0.19352289
000310 ab 99 10 3d 14 1e 75 3e bb 88 58 3d 43 75 07 bd
       0.0353028 0.23937255 0.05286477 -0.033070814
000320 70 d8 81 3e 3f 9a 67 be 6d b8 66 be 69 16 46 bc
       0.2536044 -0.22617434 -0.2253129 -0.012090304
000330 32 69 2b be 42 14 3f 3e 5f 45 42 be 71 3c c4 bd
       -0.16739348 0.18660071 -0.18971775 -0.09581841
000340 05 74 05 3e e6 77 86 bd ae dd 73 3e ec 7c 0b be
       0.13032539 -0.065658376 0.23815033 -0.13621873
000350 fb 6c 09 be ad 7d 5b bc 58 97 19 be 77 ef e7 bd
       -0.13420479 -0.013396663 -0.1499914 -0.11324971
000360 cb 29 47 3e a6 9d 05 3e 07 15 62 3d 17 97 84 be
       0.19449537 0.1304842 0.055195834 -0.25896522
000370 a1 b4 76 3d af 10 18 be b1 b6 99 bd 91 ea 8f 3d
       0.060230855 -0.14850114 -0.07505549 0.07027162
000380 39 02 9e 3e ca f5 b4 3d 6f 16 59 3e bc 2e 04 3e
       0.3086107 0.08835943 0.21199964 0.12908453
000390 7b 8c 5e be e8 83 f1 bc b8 8c fc 3c d8 09 4b 3e
       -0.21733277 -0.029481843 0.030828819 0.19827974
0003a0 b6 86 e2 3d 20 78 23 be 4c 42 8e bd fe 0d 55 be
       0.1106085 -0.15963793 -0.06946239 -0.20806119
0003b0 34 48 11 3e 6e d1 8a 3e cf aa 1a 3d f1 c3 41 3d
       0.141877 0.27112907 0.037760552 0.047306005
0003c0 13 5c 0b be b1 90 95 3d 96 90 6b be 01 0c fd 3d
       -0.13609342 0.07302988 -0.23004374 0.12355805
0003d0 ea e7 24 bc d1 92 5a bd 2f 0b da 3c 8c 92 4a 3e
       -0.010065058 -0.05336267 0.02661666 0.19782466
0003e0 89 97 3a bd 5b eb fa bd fc bd 04 3d fc 6e 8a bd
       -0.04555467 -0.12251922 0.032407746 -0.0675945
0003f0 d8 ea 0a bd 60 4d 9c be ee 0c c3 3d b8 8c b1 bd
       -0.03391537 -0.30527782 0.095239505 -0.08669418

sequential_3/dense_11/MatMul_bias f4 [17]
000000 98 eb 19 3d 5b ae f1 3c 9a 94 85 3d 87 12 5b 3c
       0.037578195 0.029502084 0.06522484 0.0133711165
000010 54 92 f5 bd 91 11 52 3d 85 27 1a be 8c 74 f8 3c
       -0.119908005 0.051286284 -0.15054138 0.030329011
000020 79 91 bc bd d4 f9 b8 3d 2a 22 e2 3c 62 15 c7 3d
       -0.09207434 0.09032026 0.027604181 0.09720875
000030 ec be 0e be c5 2d 10 bd f6 2f 63 3e 35 eb 9f bd
       -0.13940018 -0.0351999 0.22186264 -0.07808534
000040 01 26 98 bd
       -0.07429124
